data.pth (torch, 5079 bytes, 6 tensors)

l1.weight f4 [8, 56]
00000000: 0a64 c3bd 0a42 203f 300c 1e3f 0ccd d13e
00000010: 9931 493f 30d7 42bf 4416 003f fe43 3e3f
00000020: eb65 f43e 5115 1a3f a3fe 243f 0dd4 50be
00000030: 5f5f 9b3e dc8a 84be 8a6f 94bd a08e bf3e
00000040: 4b25 44be 34b6 1c3f 489b 3dbf ff05 0b3f
00000050: 416e b43d e1fd 343f 8391 313f ea5f 1a3e
00000060: bee6 76bd e0e9 953e bbe9 103f 3d93 003f
00000070: bfd4 d3be cb5c d5be 56ed dc3c 0bf3 2a3f
00000080: 433e 333f c329 e6bd 04bc 8bbe c2f5 c2bd
00000090: ac45 e2bd 4e4b 863e 1d88 183f 4994 da3e
000000a0: 8822 07bf 5ff8 07bf 978e 9dbe 3aab 0d3f
000000b0: ce22 af3d 19ba 093f b588 04bf eb90 89bd
000000c0: c063 7ebd 2432 d43e 8ee0 04be 73a4 6ebd
000000d0: c7a0 3cbf 5054 acbe 8966 e33e aad8 bc3e
000000e0: 4fc0 f43e 18da c73e 5963 dbbe 9f57 82be
000000f0: 9d41 e6be 5a98 f43d 166f 1fbe 03bb 3abe
00000100: 520d 0ebe ebca debe 1e50 47be 7115 633c
00000110: 5dfb a93d f667 cfbd 27c8 f53e e2db 3a3e
00000120: b97e 343d 6a17 2cbe e852 783e d5f5 c2be
00000130: 7398 dd3e 03d4 c2be 56b3 b8be 5532 adbe
00000140: dfc8 4abe b1fe 773e 06f8 febd a5e2 babc
00000150: fe80 1fbe 0396 973c df0d 933e 8c2c eebe
00000160: 6564 273d a0f6 003f f6a7 20be ac91 9e3e
00000170: 6fc4 243f fad9 64be 1692 15bb 0c43 c0bd
00000180: f838 0abd 5653 133f 35f1 863d 611c 093e
00000190: bd84 8dbe c944 c3bc 3c74 3b3f 947e eb3e
000001a0: ed5b 343f 8bf4 57be 2a24 063f 1365 b83e
000001b0: 9244 523f d1c4 d8bd 355b 923c 7945 dc3e
000001c0: 5cf7 8d3e f912 1c3f 73b4 b5be c869 31be
000001d0: 85b1 0fbe 874c 92be f57e 83bd a62c 8dbe
000001e0: 1fe0 343e 1109 b4be b9de c5bd 8216 2cbe
000001f0: 9ee8 d23e 1803 43bd 4f26 8d3e 009a 113f
00000200: a8db 58be adae 41be 8f49 92be 4d4d 92be
00000210: 36d2 c33e a182 92be c14a 8cbe ae78 bbbe
00000220: 19d5 22be 3476 babb 75ba 0e3f ab1d d23e
00000230: b6a2 66be c0b4 44bb 1879 c43e fa0e 00bf
00000240: d54c 0e3f dbe7 933e b5f4 eebb dfb0 3b3e
00000250: e715 913e f737 303e 81db fa3d 1d3d e03d
00000260: eaa4 86be a578 093f c88b cf3d 2f40 183f
00000270: 5c19 70be 7bd5 263f 5bb4 3d3f b23a 963e
00000280: 1707 9d3e 5745 b0bd c84d b23e 23c2 793e
00000290: 2e18 083f f030 1bbe 53bc cfbd ccff 613e
000002a0: 3fdb d2bd fb89 923e 46b1 183f 9792 ba3e
000002b0: cfa8 453f 57f4 f5bd 456b 0f3f 10fe 253f
000002c0: 6ea4 123f be98 113f aa83 063f a086 8dbe
000002d0: 133d c03e 0c8e 71be d591 ac3d f146 da3e
000002e0: c112 65be 6180 2d3f b10b ecbd 7af3 553f
000002f0: b051 89be 6b22 4c3f eb75 173f 099e dbbd
00000300: eae4 873e 7867 fe3e 1169 143f 3112 9b3e
00000310: 1ca4 59be b8ea 33be 2df6 96bd cf16 353f
00000320: a71e ef3e e16c 42bd ecf1 afbe 62af 05be
00000330: 4468 3cbe 3650 0f3f a411 1f3f 873f c93e
00000340: d5da 96be 3301 29bf 0fd9 53be 5034 a43e
00000350: c867 963e 53dc 093f 6558 16bf 7dd6 67be
00000360: 3aa8 f8bd dcd1 143f 57e2 e1bd 36ee 82bd
00000370: 6281 21bf 7da5 38be 1211 1e3f 4708 a33e
00000380: c4f7 073f 8659 473f 5d0a cebe 0244 083d
00000390: e597 1cbe 3ece d9be f35d 443d f3cb 64be
000003a0: 9e94 e8be abc1 a1be 5d26 d03e 112b 8abd
000003b0: 2407 ec3d 4acc 2ebe 5003 e83e b320 933e
000003c0: a6c8 cebd ba40 4c3e 6b04 dabe 9441 e93d
000003d0: 8c12 9f3e 4753 653e fa9f 003d 36a7 443e
000003e0: b484 d4bd b558 303e 86d2 223f 1631 c63e
000003f0: 0da2 e7be 6a86 1a39 b566 353e 3dff dabe
-0.09540565 0.6260077 0.61737347 0.4097675 0.78591305 -0.761096 0.50033975 0.743225
0.47734007 0.60188776 0.64451045 -0.20393391 0.303462 -0.2588719 -0.07247837 0.37413502
-0.19154851 0.6121552 -0.74065065 0.54306024 0.08810092 0.7069989 0.6936266 0.15075651
-0.060278647 0.29279995 0.56606644 0.5022467 -0.4137325 -0.41672358 0.02696864 0.66777104
0.7001688 -0.11238434 -0.27291882 -0.09519531 -0.11048445 0.26229328 0.5958269 0.42691258
-0.52787066 -0.5311336 -0.3077285 0.55339396 0.0855156 0.5379959 -0.517711 -0.06717094
-0.062106848 0.41444504 -0.12976286 -0.0582623 -0.73682827 -0.33658075 0.44414166 0.36884052
0.4780297 0.3903358 -0.42849234 -0.25457475 -0.44971934 0.11943121 -0.1556972 -0.18235402
-0.13872269 -0.4351419 -0.19464156 0.0138600925 0.08299897 -0.10127251 0.48004267 0.18247941
0.044066165 -0.16805807 0.24250376 -0.3807818 0.43280372 -0.38052377 -0.36074322 -0.33827463
-0.19803189 0.24218251 -0.124496505 -0.02281315 -0.1557655 0.018504148 0.2872152 -0.46518362
0.040867228 0.5037632 -0.15689072 0.30970514 0.64362234 -0.22348776 -0.002282267 -0.09387788
-0.033745736 0.57549036 0.06588975 0.13389732 -0.27640334 -0.02383651 0.73224235 0.4599501
0.7045277 -0.2108938 0.5239893 0.36014614 0.8213588 -0.10584415 0.017865757 0.43021753
0.27727783 0.6096645 -0.35489234 -0.17325509 -0.14032562 -0.2857401 -0.064206995 -0.27573127
0.1766362 -0.35163167 -0.096616216 -0.16805461 0.41193098 -0.047610372 0.2756829 0.5687561
-0.21177542 -0.1891429 -0.28571746 -0.285746 0.38246316 -0.28615287 -0.27400783 -0.3661551
-0.15901603 -0.0056903604 0.5575326 0.4103826 -0.22523007 -0.0030014962 0.38373637 -0.5002285
0.55585986 0.2888783 -0.007292355 0.1832919 0.28337023 0.17208849 0.12248898 0.109491564
-0.26297694 0.53699714 0.10134083 0.59472936 -0.23447174 0.65169495 0.74103326 0.29341656
0.30669472 -0.086069755 0.34824967 0.24390464 0.53161895 -0.15155387 -0.10143342 0.22070235
-0.10295724 0.28620896 0.596455 0.36439964 0.77210706 -0.12009495 0.56023055 0.64840794
0.5728215 0.5687369 0.52544653 -0.27641773 0.37546596 -0.23589343 0.08426253 0.4263225
-0.22370435 0.67774016 -0.115256675 0.8357464 -0.26820135 0.7974002 0.59164304 -0.10723502
0.26541835 0.49688315 0.5797282 0.30287316 -0.21254009 -0.17570007 -0.07371173 0.7073793
0.46703073 -0.047467116 -0.3436426 -0.13055184 -0.18399149 0.5598177 0.6213629 0.3930628
-0.2946383 -0.66017455 -0.2068827 0.3207116 0.29376054 0.53851813 -0.5872863 -0.22640415
-0.12141462 0.5813272 -0.11029499 -0.063930914 -0.6308805 -0.18031879 0.617448 0.31842253
0.53112435 0.77870977 -0.40242282 0.033267982 -0.15292318 -0.42540163 0.04794116 -0.22343425
-0.45425886 -0.3159307 0.4065427 -0.067464955 0.115247995 -0.17070118 0.45315027 0.28735885
-0.100968644 0.19946566 -0.42581496 0.11389461 0.31068838 0.22395049 0.031402566 0.19204411
-0.103768736 0.17221339 0.63602483 0.38709325 -0.45240822 0.00014736658 0.17714961 -0.42772856

l1.bias f4 [8]
00000000: f525 543f 39e6 c23e 074c 923e 1be0 183f
00000010: e7c8 d93e 61e1 b93e e3f0 5c3f ea9b 6d3f
0.8287042 0.3806627 0.2857363 0.5971696 0.4253609 0.36304763 0.86305064 0.9281603

l2.weight f4 [8, 8]
00000000: d244 b33f 6acd 34bf d9bf 0d3f 909e ae3f
00000010: df81 c03e e3c8 813f 564b 6f3f c955 0dbf
00000020: 4cc0 b23d 3159 62be 3439 4b3e 4648 4dbd
00000030: 7ba7 03be 7a65 73be e821 bdbd cbad 24be
00000040: 9915 953e 3187 ccbe 4e98 63bf c91a 0d3f
00000050: 3e08 6dbf 000f 49bc 2e80 463f fa8e 133f
00000060: b550 e03e fab1 be3e 54b0 15bf 3fb3 153f
00000070: 85d9 09bf dd70 773f 108e 8c3f 08ad 2ebf
00000080: 4ffe 3fbf d743 a43f e764 993f 02ec 84bf
00000090: 479c a03f b4dd 433f b845 583f 7195 593f
000000a0: 92a5 3a3e 2ca1 14be 8575 a03e 7ab2 85be
000000b0: 1cd4 93be 36b2 16be d8c5 b4bd 0764 9dbe
000000c0: b78b c6be c6d4 4a3d 350b 87bf 0551 4ebe
000000d0: f8f8 91bf f4da 7fbe b2dd 1d3f 2649 7f3f
000000e0: 71a2 8b3f 7098 e83e 600e 7c3e 1df7 f83e
000000f0: 4986 a73f 8ea8 92bf d82b 2bbf 4645 a23f
1.4005377 -0.70625937 0.5537086 1.364214 0.37599084 1.0139431 0.9347433 -0.5520902
0.08728084 -0.22104336 0.1984604 -0.050117753 -0.12856857 -0.23769179 -0.09234983 -0.16081922
0.2911804 -0.39946893 -0.88904274 0.55118996 -0.925907 -0.012271643 0.77539337 0.5764004
0.43811575 0.3724516 -0.5847218 0.5847663 -0.53847533 0.9665659 1.0980854 -0.68232775
-0.7499742 1.2833203 1.1983918 -1.0384524 1.2547692 0.7651017 0.8448138 0.84993654
0.18227223 -0.14514607 0.3133966 -0.2611273 -0.28872764 -0.1471642 -0.08826798 -0.30740377
-0.3877847 0.049519323 -1.0550295 -0.20148094 -1.1404104 -0.24985868 0.61666405 0.9972099
1.0908948 0.454288 0.24614859 0.48626032 1.3087856 -1.1457689 -0.66863775 1.267739

l2.bias f4 [8]
00000000: 01a4 843c 9b78 89bd a003 793f 6e08 b13e
00000010: 6e02 d73e 05cd 19be 7042 423e 88d6 503f
0.016191484 -0.06712457 0.97271156 0.34576744 0.4199404 -0.15019615 0.18970656 0.8157735

l3.weight f4 [7, 8]
00000000: 88bb 9ebf 19d8 53bd 6d3c 423f 07d3 5ebf
00000010: 51c4 96be df43 853e 4490 7c3f ca9e ae3e
00000020: dfa8 ffbb 3925 d93d 7f00 c7bf 5dce 2c3e
00000030: 875d 1f3f 3664 133e 16a5 b0bf 5fc6 73bf
00000040: 7f58 1a3f 89fd a93d ded3 aabf ad6a 6fbe
00000050: 0e57 e6bd 1217 3f3e e404 aebf a848 b3bc
00000060: db17 dbbc 2ea1 0c3a b77b 323f 0277 b93e
00000070: fbec 253d 9b88 26be 37a9 4a3e 9487 92bf
00000080: b2e8 ef3d 8811 5cbe 3f2f 3e3f 9881 7dbe
00000090: 52c6 c0bf 0f7c a3be ac69 12bf 137d 663f
000000a0: 58b3 253f 7de5 03be 173e 7a3e 4041 273f
000000b0: e30f a9bf 4e04 633e f6ae c2bf 6c10 6abf
000000c0: 05c6 74bf 6bee acbe 5b5c 7dbf 28b5 5dbf
000000d0: 8332 353f 6d9a a0be ced7 86bf e987 183f
-1.240098 -0.05171976 0.7587345 -0.8704075 -0.29446653 0.26028344 0.9865763 0.3410552
-0.0078021134 0.10602803 -1.5547026 0.16875596 0.62252086 0.14393696 -1.380038 -0.95224565
0.60291284 0.08300311 -1.3345907 -0.23380537 -0.11247073 0.18661144 -1.3595243 -0.021885231
-0.026744774 0.0005364594 0.69720024 0.36223608 0.040509205 -0.16263048 0.19791113 -1.1447625
0.11714305 -0.21491063 0.7429084 -0.24756467 -1.5060523 -0.31930587 -0.5719249 0.900346
0.6472678 -0.12880512 0.24437748 0.6533394 -1.3207973 0.22169611 -1.5209644 -0.9143131
-0.95614654 -0.33775648 -0.9896905 -0.8660455 0.707802 -0.31367818 -1.0534608 0.5958238

l3.bias f4 [7]
00000000: 808c ce3e 62e8 313c ba15 ddbc fad4 893e
00000010: 31ca 153c fc9e 00bf 7ad6 803e
0.40341568 0.010858627 -0.0269879 0.269203 0.0091424445 -0.5024259 0.25163633
