data.pth (torch, 5463 bytes, 6 tensors)

l1.weight f4 [8, 64]
000000 d2 7d 41 3f b0 4f a8 3e bc 44 75 be 86 3f 26 bf
       0.7558261 0.32873297 -0.23952001 -0.6494068
000010 5e 21 15 3f d5 ff 6b 3e fd 85 32 3e bc 50 8d 3e
       0.5825404 0.23046811 0.17433925 0.27600658
000020 de 1b 8d be 55 e6 dc bc e5 de 25 3e 90 8c 3b 3f
       -0.27560323 -0.0269653 0.16198309 0.73261356
000030 5f 01 cd be 10 51 3a 3f 7e 03 be 3e a5 e8 14 3e
       -0.4004011 0.7277994 0.3711204 0.14541872
000040 c2 d6 e0 3e c3 e7 47 be a7 2e dc 3e 8f 57 1d 3f
       0.43913847 -0.19522004 0.43004343 0.6146173
000050 8f 12 1b 3e 08 b1 15 3e 5e 0a 5c 3f eb 07 22 3f
       0.15143798 0.14618313 0.8595332 0.6329333
000060 f1 61 5c 3f 5f 05 38 3f ff 91 6c 3f b9 8d fd be
       0.86086947 0.71883196 0.9241027 -0.49522188
000070 a6 a6 8d 3e 3a e2 11 3e 94 e7 45 3e 15 fb d4 3e
       0.27666205 0.14246455 0.19326621 0.4159781
000080 2c b9 a8 3e 97 79 63 be d1 f0 d4 3e 4b e5 2a bd
       0.32953775 -0.22214352 0.41589978 -0.041722577
000090 31 61 88 3e 0d 97 10 be c5 e2 7d bd b3 ad 81 bd
       0.2663665 -0.14120121 -0.061983842 -0.063319586
0000a0 0e 04 82 be 26 db de 3d bb ce a6 3e 5d 46 3c 3f
       -0.25393718 0.10881643 0.32579598 0.73544866
0000b0 0d 9a de 3e 84 01 af 3e 06 7f 31 3e 27 b8 99 3e
       0.43476906 0.34180844 0.17333612 0.3002331
0000c0 f5 50 00 bf c8 26 c0 3e f1 54 08 be c7 37 9c 3e
       -0.5012353 0.37529588 -0.13313653 0.30511305
0000d0 ed a7 83 3f 0c d3 fc 3e 2d 82 93 3e cf 85 11 3f
       1.0285622 0.49379766 0.28810254 0.568448
0000e0 ed 8f 1e bd 28 fc 19 be de 10 bb be b9 9a 69 be
       -0.038711477 -0.15037596 -0.36536306 -0.22812928
0000f0 75 9c 01 bf a1 52 a4 3e 9e 1e 05 3f c5 4f fd bb
       -0.5062936 0.3209429 0.51999843 -0.0077304565
000100 fb 13 ae 3e 50 47 8a 3e b3 9f 83 3e 5c 5c 4e 3f
       0.3399962 0.27007532 0.25707778 0.8060968
000110 26 d3 93 bd 80 ed 92 bc 5e 55 cb 3e 8b 9a d8 3e
       -0.07218008 -0.017935514 0.39713567 0.42305407
000120 cc 5b 54 3d ee 08 1b 3f a1 77 08 3f 3f c0 ac 3d
       0.051845357 0.605605 0.5330754 0.084351055
000130 cc 65 36 3e cc 97 21 be 30 8d c5 be c7 31 f4 3e
       0.1781227 -0.15780562 -0.3858428 0.47694227
000140 f2 aa 34 be 4e 15 67 3e 00 e2 8b be 4c 4f 80 be
       -0.17643335 0.22566721 -0.27320862 -0.250605
000150 1e e3 e3 3e 25 4e fd 3e 6d 7a cf be 59 6f 8f be
       0.44509214 0.49473682 -0.4052309 -0.2801464
000160 c1 48 d0 be 66 a7 b2 be 35 17 0f bf 50 00 2f 3f
       -0.40680507 -0.3489334 -0.55894786 0.6835985
000170 4f 94 e8 3e 72 ed bf 3d 91 77 4b 3e 0d 82 09 be
       0.4542565 0.09371461 0.1986983 -0.13428517
000180 b8 2f a5 be 7b 67 8d 3e 25 59 17 3f c0 5a 61 3f
       -0.3226297 0.27618012 0.591204 0.880291
000190 f5 15 d0 be d1 85 77 3d 23 7c 30 3f 0f e3 03 3f
       -0.40641752 0.06043035 0.6893942 0.5151834
0001a0 11 3b a6 3e af 98 02 3f 19 ad 08 3f af f0 85 3e
       0.3246694 0.51014227 0.53389126 0.2616019
0001b0 da 3e ff 3e 82 f1 cb 3e 83 f3 00 3f de 66 8e 3e
       0.4985264 0.39832693 0.5037157 0.27812856
0001c0 70 e9 9a 3e bb 97 64 be b5 8b 91 3e 75 4a 2d 3f
       0.30256224 -0.22323506 0.284269 0.6769174
0001d0 2e 50 26 bf 42 d5 ef be 56 a2 4b 3f f3 b9 98 be
       -0.64966094 -0.4684239 0.7954458 -0.29829368
0001e0 5b 13 3d be 52 7c 17 3f c2 79 02 3e 7f b5 d8 3e
       -0.18464415 0.5917407 0.1274176 0.4232597
0001f0 b9 cd 9a 3e 89 28 93 be 93 83 00 3f 05 fb 6c 3e
       0.3023508 -0.28741863 0.50200766 0.23142631
000200 9a 6c 0f 3f 9b 1e 84 3d 97 87 e6 3c 2e 95 d8 be
       0.5602509 0.0645115 0.028140826 -0.42301315
000210 5c dd 92 3d c1 21 22 3d c3 63 2d 3f ee 7c 54 bc
       0.07171127 0.03958297 0.6773035 -0.012969239
000220 02 f8 96 bd c5 be 30 be b3 2b 2e 3e fd 4a 21 bf
       -0.073715225 -0.17260273 0.17008857 -0.6300505
000230 cf ac d4 3c ae 8f 5d 3d 48 f7 ff 3e 96 26 67 be
       0.025961308 0.0540921 0.49993348 -0.22573313
000240 9a 75 e8 3e 47 ae 8b be 5a e3 11 3f 99 e7 a8 bd
       0.45402223 -0.272814 0.56987536 -0.08247299
000250 ba 3b 65 3f 23 9d ed be e4 b7 5e be b6 61 3e 3f
       0.8954426 -0.46408948 -0.21749836 0.74367845
000260 ea 29 8d bd a2 df 9b bd 95 e7 7f 3d 92 80 a0 be
       -0.0689276 -0.07611014 0.062476713 -0.3134809
000270 39 08 2b be 72 24 cd 3d 15 dc 23 3f d1 b5 04 3f
       -0.16702355 0.10016717 0.64007694 0.5183993
000280 3f 34 14 3f c8 62 81 bb 22 55 89 3e fc de 2e bf
       0.5789222 -0.003948543 0.26822764 -0.68309
000290 b5 2b 0c 3f c1 60 60 bd 27 6c 8e be 8e 8f b3 be
       0.5475419 -0.05477977 -0.2781689 -0.3507046
0002a0 4a ce 95 be ee 05 83 3d 0a ca 0f 3e c3 ef 21 bf
       -0.2925895 0.063976154 0.14041916 -0.6325647
0002b0 04 cc 46 3e 21 d7 e1 bd 5a 85 62 3e b8 94 23 3f
       0.19413763 -0.11027361 0.22121182 0.638988
0002c0 c6 eb fc be b9 95 d4 3e 0c 49 c4 bd 44 1a d6 3e
       -0.4939863 0.4152048 -0.09584245 0.41816914
0002d0 2e 52 ae 3f 81 b3 58 3f 31 21 0e be c7 54 41 3d
       1.3618829 0.846489 -0.13879849 0.04719999
0002e0 a1 c1 40 be 39 bc cc 3d 11 16 fe bd 9a bd 8b be
       -0.18823864 0.09996838 -0.124065526 -0.27293092
0002f0 ac b4 db be 2b e8 b8 3e 7b 26 c4 bd de eb ac 3e
       -0.4291128 0.3611463 -0.09577652 0.33773702
000300 85 f2 05 3f 84 b4 c6 3e 9f 44 18 3f a1 cb 78 3c
       0.5232318 0.38809597 0.5947971 0.015185268
000310 d1 53 28 bd e2 de 2b 3d ae 17 59 3f bc 07 f3 bd
       -0.04109556 0.041960604 0.8480176 -0.118667096
000320 7d a4 25 3f f0 99 49 3f 7e 55 b1 3e 74 9e 8d bd
       0.64704114 0.78750515 0.34635538 -0.06914988
000330 b8 61 ff 3e fe b2 11 be 5b 79 d0 bd c0 5b 9a 3e
       0.4987924 -0.14228436 -0.10179397 0.30148125
000340 58 ee 2e be 32 64 09 bf 4c f9 16 be b7 bc 08 be
       -0.17083108 -0.5366851 -0.14743537 -0.13353239
000350 c4 c5 29 3f 1f 0b cd 3e be 0e 8f be 73 db 45 3e
       0.6631739 0.40047547 -0.27940935 0.19321994
000360 62 84 82 be 0a ea 8b be 6f 9b 0c bf 34 05 26 be
       -0.25491625 -0.27326995 -0.5492467 -0.16212922
000370 38 af 84 be 4f 2b bb be 11 e1 f0 3e 2e 94 51 be
       -0.2591493 -0.3655648 0.47046712 -0.20466682
000380 d3 fd 26 3e c3 bc 2f 3f 19 70 17 3f c6 66 fe 3e
       0.16307764 0.686474 0.5915542 0.49687785
000390 78 f1 2a be f2 24 03 bf 32 90 ac 3e 44 e1 17 3f
       -0.16693676 -0.5122825 0.33703762 0.59328103
0003a0 c4 94 60 bd 6d 0a 02 3f 25 90 87 3e a4 e1 91 bd
       -0.054829374 0.5079716 0.2647716 -0.07123116
0003b0 b6 b4 8e 3e 30 61 6a bd b0 83 c5 3e 85 90 c4 3e
       0.27872247 -0.05722159 0.38577032 0.3839151
0003c0 1f a3 8f bd e9 d0 ce bd ee bb d3 3b 89 17 23 3f
       -0.07013535 -0.1009844 0.006461612 0.63707787
0003d0 a1 ce 82 3e 6f 74 ed 3d 22 5c 1c 3f 20 15 66 bd
       0.2554827 0.115944736 0.61078084 -0.05617249
0003e0 34 e6 da bd cd d9 fc 3e a6 f6 bf be 89 0b b4 bd
       -0.10688439 0.4938492 -0.37492865 -0.08791263
0003f0 05 ea 2a bd 10 93 92 bc 88 6b 92 bd f1 5a b7 3e
       -0.041727085 -0.01789239 -0.07149416 0.3581157

l1.bias f4 [8]
000000 26 18 5c 3f c9 6a ce 3e b3 b2 76 3f 48 33 c5 3e
       0.8597435 0.40315846 0.96366423 0.38515687
000010 04 04 a1 3e 80 2f f1 3e 18 8d 0b 3f 6c 0d 0a 3f
       0.31448376 0.47106552 0.54512167 0.5392673

l2.weight f4 [8, 8]
000000 23 59 24 3f 74 b5 6e 3f f7 44 3f bf 4d c5 36 3f
       0.6419851 0.93245625 -0.74714607 0.7139481
000010 6a c8 1c 3e b8 d3 29 3f 7f 1c 9a 3f 0a f0 dd be
       0.15310827 0.6633868 1.2039946 -0.43347198
000020 d3 e3 10 bf bf 76 0d 3f e1 f7 a9 be 4d 9f 33 3f
       -0.5659763 0.5525932 -0.3319693 0.7016495
000030 65 94 62 3f 0a 8a 4c 3f 9c 33 29 3f d1 c6 19 3f
       0.8850768 0.7989813 0.66094375 0.60068995
000040 2e 09 b7 be 2f b3 b6 3e 15 b8 75 be 07 7b 1d be
       -0.3574919 0.3568358 -0.23996003 -0.15378962
000050 84 cc bf 3c 32 13 07 3f a1 26 81 be 28 99 0d be
       0.02341295 0.52763665 -0.25224784 -0.13827956
000060 97 9d 1d 3e bb 21 93 3e 66 d8 21 bf 69 0a 24 3d
       0.15392147 0.28736672 -0.6322082 0.04004899
000070 69 c1 92 3f 71 7f d2 3d 00 5b 29 be f9 4d 95 3f
       1.1465274 0.10278214 -0.1653862 1.166442
000080 65 9d 83 bf f4 a6 ca 3e f6 24 9d be 77 7c 07 bf
       -1.0282408 0.395805 -0.3069226 -0.52924293
000090 f1 97 93 be 80 95 c8 3e 8d e7 14 3f 64 9a 2d 3f
       -0.2882686 0.3917656 0.5816582 0.67813706
0000a0 30 44 cc 3e 4c 83 42 3f 9c 22 a8 3f 56 53 b3 3f
       0.39895773 0.75981593 1.3135562 1.4009807
0000b0 bd 88 81 3f 1b 95 28 bf 0a b4 86 bf fc 3f 4a bf
       1.0119854 -0.65852517 -1.0523694 -0.7900388
0000c0 2a 30 b1 3f e2 09 6c bf 83 0e c6 3f d2 89 9d be
       1.3842824 -0.9220258 1.5473179 -0.3076921
0000d0 6a 15 0c 3f ec db ba 3e c1 f1 13 bf 1f 28 7c 3f
       0.54720175 0.36495912 -0.5779076 0.9849872
0000e0 32 c2 94 3f 59 ce 2c bf 61 7f db 3e ce 92 96 be
       1.1621764 -0.6750236 0.4287062 -0.29408878
0000f0 94 04 5e bf 64 b8 80 3f 42 e5 76 be 6b f7 8c 3f
       -0.86725736 1.0056272 -0.24110892 1.1013006

l2.bias f4 [8]
000000 27 de 9d 3e a0 60 21 3d 60 96 e3 3d 4b 02 13 bf
       0.3083355 0.03939879 0.11112666 -0.57425374
000010 9e 21 18 3e 17 a7 28 3e 96 2c 1b 3f e5 96 ad bd
       0.14856574 0.1646999 0.6061491 -0.084760465

l3.weight f4 [8, 8]
000000 86 8f e1 bf 24 7e ab be ae 18 6a be e7 6e f6 3e
       -1.7621925 -0.33494675 -0.22860977 0.48131487
000010 0b 1e bc bf c5 be 37 bf 52 ce 99 3e 48 72 47 3e
       -1.4696668 -0.71775466 0.30040222 0.19477189
000020 40 0e 9f bb 9c 35 64 3e ef e7 ac 3e 14 df a3 bd
       -0.0048539937 0.22286075 0.337707 -0.08001533
000030 12 d7 7d 3f 10 7b b3 bf b5 cc c4 bf 88 1e e4 bf
       0.99156296 -1.4021931 -1.5374972 -1.7821817
000040 3d 11 07 bf 1d 37 5a bf 1c 59 11 bf 4a cb db bf
       -0.5276068 -0.85240346 -0.56776595 -1.7171414
000050 c1 97 35 bf 8a 0e 70 3f fe fa 9a 3e a9 ee ed bf
       -0.70934683 0.93772185 0.30269617 -1.8588458
000060 1e 46 9e be f9 43 75 bf f6 ac c7 be b5 49 ec bf
       -0.3091287 -0.95806843 -0.38999146 -1.8459994
000070 89 b1 01 c0 97 4c f8 bf b9 ef 37 3f 74 40 bb 3e
       -2.026461 -1.9398373 0.7185016 0.3657261
000080 47 6e 95 3b 48 7e cd 3e c7 e0 06 3f fb a9 02 3f
       0.004560265 0.40135407 0.52686733 0.5104062
000090 09 86 00 bc d9 1a fb be 36 50 9d bf a6 cf cc be
       -0.0078444565 -0.4904392 -1.2290103 -0.40002173
0000a0 13 a2 59 be ff 0b 9b be 5f cc 95 bf 2f 97 d8 3e
       -0.21253233 -0.3028259 -1.1702994 0.42302844
0000b0 df 71 dd be 4d 31 ae 3e 07 9c 16 bf f5 00 fe 3e
       -0.4325094 0.3402199 -0.5883183 0.49610105
0000c0 b4 f0 27 3f 22 a5 ab 3e b1 51 c5 be 8d 1d ef bf
       0.6560166 0.33524424 -0.38538888 -1.8680893
0000d0 77 2c 8a bf d9 38 69 3e 85 79 b2 bf 9b a5 8a bf
       -1.079482 0.22775592 -1.3943335 -1.0831789
0000e0 ca 94 04 c0 93 e5 eb bf 89 1f 95 be d9 d4 cb bf
       -2.0715814 -1.8429435 -0.29125622 -1.5924331
0000f0 cb 4f 08 bf bb be f5 3e 07 ce d8 3e 6f 72 8d 3e
       -0.53246754 0.47997078 0.42344686 0.27626368

l3.bias f4 [8]
000000 25 5c 53 bf 37 4e 83 3e 7d 86 b2 3e 42 2d 4e 3f
       -0.82562476 0.2564561 0.3486823 0.8053781
000010 2e 70 0f bf ef 55 45 bf 54 ec b9 3e cd 3e d5 bd
       -0.5603055 -0.7708425 0.36313117 -0.10412369
