data.pth (torch, 6615 bytes, 6 tensors)

l1.weight f4 [8, 85]
00000000: 698b 4bbe 061a 7d3e 0d21 323d cc6f 393d
00000010: 83c8 a73e cecb 07be 1988 90be 41d9 ebbc
00000020: 1bda e1bc e3ea 1ebe 544c d53c 6685 c7bd
00000030: ad77 d0be a04c 8bbe c2ed 5abe be26 47be
00000040: d932 083f 3e9c 9a3e cdd9 f03e d429 1d3f
00000050: 0a5e 0cbe 9652 d1bd 0461 203f c517 863e
00000060: 00e1 ddb9 56f8 89bd 0c20 24be dee7 823e
00000070: 7262 3cbe de16 38bd 9d68 3cbe a063 3cbe
00000080: 6573 35be bc08 d03d 674d 1cbf 27a1 093f
00000090: c360 77be 59be b2bd c872 7abd 77f3 a2be
000000a0: 0336 b23e 3271 82bd 9abd 4f3e f03f c23c
000000b0: cc01 103f ed06 8e3d 5677 8b3e 1877 073f
000000c0: 3a5f 01be 333c 4dbd 3089 b1bd ab6b adbd
000000d0: 6a70 ddbe 57b2 95bd 90c1 0ebe 1e37 c83c
000000e0: 684a ea3c b0cd 9abe 9082 95bd ca8c 54be
000000f0: a088 b0bd 6883 96bd 36af 163d 7956 b9be
00000100: 4a72 c53e 2914 d6bd b0b8 21bd dff6 973e
00000110: 57a7 3cbe c014 f4ba 7d60 bdbd 2537 143d
00000120: 19d7 4fbe ed76 75bb 1b40 84be 0721 a83c
00000130: c2ba 63be 9588 8f3f aa31 a9bd b209 723e
00000140: 382c a03d 2cf9 893c a529 86bd 03b3 5fbb
00000150: 9a01 173d 1c58 343f 3731 e03c cbb0 0ebf
00000160: 8108 b0bd 0a19 553d f01b 3d3f 5c19 40bd
00000170: 1f7b 1dbf a89e d2be a1e3 07bf 3e91 d7be
00000180: ebda d33e 3ab9 253f c922 6cbe 4e55 f2be
00000190: d4ce 20be 6650 bdbe 503c 8e3e 7c73 b3be
000001a0: b498 89be ec2b 303f 196e e63e 98a6 4fbe
000001b0: a1ff 82be 6ff5 4b3f 457a 1dbf 12f3 c3be
000001c0: fc90 94bc 852b 213f dbc8 d53e ef1a 1a3f
000001d0: cfae 293f e4ab 37bf b143 2d3f 0e7b b33e
000001e0: 5cd6 0a3f 99ba 63be db2f 843e eba1 ecbe
000001f0: 6009 dfbd 75e8 ebbe 7a90 e63e 5058 1ebf
00000200: 2320 133f deaf 90be b96d 223e 8242 82be
00000210: b632 9dbe 7701 cfbe d1cd 2e3e aefa 483e
00000220: 765d dcbe 7d5f 01bf 0280 adbd f1a0 133e
00000230: 6b5d eb3e 7ce4 f13e d02d b03e 9aa0 a23e
00000240: 4fa3 00bf 53a9 b23e 7564 3b3f 4f68 d6be
00000250: 43cf 063f c377 80be fc81 8d3e c133 3b3f
00000260: f8a5 47bd 597f 883f fb53 f23e 9682 003f
00000270: 4231 b83e a974 653e f24b 0a3f d728 863e
00000280: aa76 b43e 20ce 04be eb94 3bbf 76d4 653e
00000290: f265 f13e e725 0ebf c427 d93e c080 bcbe
000002a0: acde 903e 4e7e e83c 9182 ef3e c3ad b1ba
000002b0: db27 503e d0a9 1c3f 722a 92bd d567 913d
000002c0: b239 07bc b499 1f3f 770a c93e 39f6 6f3e
000002d0: 3794 9a3e 0dd5 6b3e cb21 c43e c0df b9be
000002e0: fcff 373e 8147 193f 2a5e 5fbe 0f3a df3d
000002f0: 40dc b1be 5481 8dbe d9f7 073f 499f d93e
00000300: 1e65 02bf 9b98 d83e 3568 e73b dfa4 1f3f
00000310: 45a4 d13e 3d4d 923d 8ef7 dc3e 5417 c1be
00000320: 8f39 a33e ee61 e43e 4315 1abf f4fe a13e
00000330: 733b 0f3f 544e 8c3e 3bce 9fbe 3e9f 6d3f
00000340: bd0e f73e f029 503f 32a0 73be 2457 ff3c
00000350: dcd7 2f3e 6174 603e 9e28 dabe d6bb 793e
00000360: 89d9 f1bd 5740 cabe 60e3 c73e abde 80bb
00000370: 2cb8 013f b2d1 273e 03d5 0bbf 0e78 20be
00000380: bc36 723e 16a8 2b3e 2e17 683e 80dd 4a3e
00000390: 2400 723e 63a9 123e b07b 653e aefb 733f
000003a0: 8d76 bc3e 6b11 ae3e 51e0 7ebe 071a 873e
000003b0: 9ed5 5d3f d9c8 3c3d e95b 45bf 17ea e2be
000003c0: ea74 bc3e 2077 353f c53b 3a3e 2a52 903e
000003d0: 1530 3e3e cbfe e33e 56d6 2f3e 2a8f 6abf
000003e0: 3fc5 bf3e 53cd 033f 6244 17bf 8ffe 263f
000003f0: 6b90 ec3d 3fdf e03e a0ea ab3e 0d76 003e
-0.198774 0.24716958 0.04348855 0.045272633 0.32770166 -0.13261339 -0.28228834 -0.028790118
-0.027569821 -0.1551929 0.026037373 -0.097422406 -0.40716305 -0.27206898 -0.2137976 -0.19448373
0.5320259 0.30197328 0.4704117 0.6139195 -0.13707748 -0.1022083 0.62648034 0.2619001
-0.00042320043 -0.067368194 -0.1602785 0.25567526 -0.18396929 -0.044943683 -0.18399282 -0.18397379
-0.17719801 0.10157916 -0.61055607 0.53761524 -0.24158005 -0.08727712 -0.06114462 -0.31826374
0.34806833 -0.063692465 0.20287171 0.023712128 0.5625274 0.06934915 0.27239484 0.529161
-0.12633982 -0.05010624 -0.086687446 -0.08467802 -0.43249828 -0.07309406 -0.13941026 0.024440344
0.028599933 -0.30235052 -0.073002934 -0.20756832 -0.08619809 -0.073492825 0.036788188 -0.36198786
0.38563758 -0.10453064 -0.039482772 0.29680535 -0.1842321 -0.0018621907 -0.09246919 0.036185402
-0.20296897 -0.0037454918 -0.2583016 0.020523561 -0.22239211 1.1213557 -0.08261426 0.23636511
0.07820934 0.016842447 -0.06550912 -0.00341338 0.03686676 0.70446944 0.027367217 -0.55738515
-0.08595372 0.052025832 0.73870754 -0.046899185 -0.6151599 -0.4113667 -0.5308171 -0.42102998
0.4137796 0.6473576 -0.23060144 -0.47330707 -0.15703899 -0.36975402 0.2778039 -0.35049045
-0.26874316 0.6881702 0.45005873 -0.20278394 -0.25585654 0.79671377 -0.61514693 -0.38271385
-0.01813554 0.6295703 0.41754803 0.6019735 0.6628236 -0.7174666 0.67681414 0.3505482
0.54233336 -0.2223915 0.2581776 -0.46217284 -0.1089046 -0.46075788 0.45032102 -0.61853504
0.5747091 -0.28259176 0.15862168 -0.25441366 -0.30702752 -0.40430805 0.170707 0.19626877
-0.43040055 -0.5053633 -0.08471681 0.14416863 0.4596971 0.47244632 0.34409952 0.31763154
-0.5024919 0.3489481 0.7320016 -0.41876456 0.52660006 -0.2509137 0.27638233 0.73125845
-0.048742265 1.0663863 0.47329697 0.5019926 0.3597508 0.22407784 0.54022133 0.26203033
0.35246783 -0.12969255 -0.73274106 0.22444329 0.4714809 -0.55526584 0.4241315 -0.36816978
0.28294885 0.02838054 0.46779302 -0.0013555813 0.20327704 0.61196613 -0.07137002 0.070998825
-0.008253502 0.6234391 0.39265797 0.2343377 0.30191204 0.23030491 0.38307032 -0.3630352
0.17968744 0.5987473 -0.21813264 0.10899746 -0.3473835 -0.27637732 0.5311256 0.42504337
-0.5093554 0.4230393 0.007061983 0.6236095 0.4094564 0.07143638 0.4315762 -0.3771311
0.3187985 0.44605964 -0.6018869 0.31639826 0.5595009 0.2740351 -0.3121203 0.9282111
0.48253432 0.8131399 -0.23791578 0.031169482 0.17172188 0.21919395 -0.42609113 0.2438806
-0.1180907 -0.39502212 0.3904066 -0.003932794 0.5067165 0.16388586 -0.54621905 -0.15670797
0.23653692 0.16763338 0.22665092 0.19811058 0.23632866 0.14322428 0.22410464 0.9530591
0.36809197 0.33997664 -0.24890257 0.26387045 0.8665408 0.04608998 -0.7709337 -0.4431922
0.36807948 0.70884895 0.18186863 0.28187686 0.1857303 0.4453033 0.17171606 -0.916247
0.37455174 0.51485175 -0.5908872 0.65232176 0.11550983 0.43920323 0.33577442 0.12545033

l1.bias f4 [8]
00000000: 5e63 3c3e fe78 1d3f 695f 5b3f bb9d 143f
00000010: 57dc 303f 65f3 203f 8e2c e83e 7636 853f
0.1839728 0.61512744 0.8569246 0.5805318 0.6908621 0.6287139 0.45346493 1.0407245

l2.weight f4 [8, 8]
00000000: 8688 953d 0054 543e 29a1 233f d07f bf3f
00000010: 2b91 aebf b715 0abf d04f 9ebb 50b2 d43e
00000020: 0cb5 64bf b544 f33f 4475 cd3f bbed 1fbf
00000030: b099 113f e611 813f a59f 72bf a85b 9d3e
00000040: 9ce2 20bf 369c 643f 0f14 37bf 8355 7f3e
00000050: 5e24 ce3f 1874 2abf 65ac d5be 4dae 883f
00000060: 6922 82bf 8a08 e23e 9a9b 19bf f662 993e
00000070: 798e 5d3f debd 483e 59ce 72bf b7a7 b23f
00000080: 44ba 7e3f 985a 98bf af8b 01be ec4a 443e
00000090: 6a0f 3e3e 0913 893f efb2 603f 65ae d13f
000000a0: 4289 63bf 7d57 a9bf 6751 5f3f ef78 fbbd
000000b0: 6465 293e c8a4 e03e 6f6f 633f fd2a 953f
000000c0: 3da2 e1be b528 a03f 1249 cb3e cba2 1c3f
000000d0: 8b1f c83f 5920 e1be 3573 b13f 537d 19be
000000e0: 557f 26bf f7ee bc3e 58f7 9dbb 055c ab3f
000000f0: fb36 8cbe 466a b9bf 6604 553f b226 313f
0.073014304 0.20735168 0.63917786 1.496088 -1.3638052 -0.53939384 -0.0048312917 0.41542292
-0.89338756 1.9005343 1.6051412 -0.6247212 0.56875134 1.0083587 -0.9477485 0.3073399
-0.6284578 0.8930086 -0.7151498 0.24934964 1.6104848 -0.66583395 -0.4173309 1.0678192
-1.0166751 0.4414714 -0.60003054 0.29958314 0.8654552 0.19603679 -0.9484611 1.3957433
0.9950297 -1.1902647 -0.12650941 0.19169205 0.18560567 1.0708934 0.8777303 1.6381346
-0.88881314 -1.3229824 0.87233585 -0.122789256 0.16542584 0.43875718 0.8884191 1.1653744
-0.4406909 1.2512423 0.39704186 0.611859 1.5634626 -0.43969992 1.3863283 -0.14989214
-0.65038043 0.36901066 -0.0048207454 1.3387457 -0.27385697 -1.4485557 0.83209836 0.6919967

l2.bias f4 [8]
00000000: c8ec 1b3f f45a 3d3f 5af1 5b3d 28f1 db3e
00000010: 3b79 f53e 32ba cc3e fd1c 433e 6e08 523e
0.60908175 0.7396691 0.053696968 0.42957425 0.47944054 0.39985806 0.19054027 0.20511028

l3.weight f4 [11, 8]
00000000: 09a5 dcbf 1938 c4bf 866e c73d dbe5 40bf
00000010: cbe8 0c3f ec8e a63e ee96 da3e 8cec 85bf
00000020: 4c4c 70bf 5d4c 7f3d ec47 adbf 1e99 503e
00000030: ae39 083f 83ac 883f 4eb2 c1bf 95fe d7be
00000040: 4593 05c0 5f38 443e cbb0 e93e 8293 153f
00000050: a438 59be 09ab c23d c9af 62be d99d 3abf
00000060: 55ce eebe 62dd babf 2d6e 063f 64e8 ab3e
00000070: 350e 1b3e 70e8 b13e 3bfd 0bbf b6ee 043f
00000080: 1e66 d6be ee03 a2bd 650c eebf 686c d6bf
00000090: aa6a b93d 5ff7 d23e 4ee4 853e 4369 fabd
000000a0: 1dd4 823f 0845 a5be c5d4 85bf c26c 4dbf
000000b0: 8bab 7cbf 2c19 aabf 9dbf f43d e9dd 4e3f
000000c0: 798f d7bf e002 773e 5354 873e 2ec6 d1bf
000000d0: e690 55bf 88a1 d0bf 03ff 073f 62c8 073f
000000e0: d6be 033f e91f bebf d445 d7bf 68b3 b2bf
000000f0: 8b5a 71bc 864f 183f d33d 4dbe a7cb 4f3f
00000100: c379 5a3e 91a2 363f deea d3bf 219a 5fbf
00000110: 21d9 95bf fa12 98bf c104 143d 3408 bebf
00000120: cab7 9abe 6a31 cfbe fc84 373f a994 523f
00000130: db96 15bf 98d0 e7bf 775e 45be bca1 f93e
00000140: c895 9c3e 64d1 52bf b8ba bbbf 9e48 4bbf
00000150: c84e b03f 11d2 c0bf 060b 0abf 803f 3cbf
-1.7237865 -1.532962 0.097378775 -0.7535073 0.55042714 0.32530916 0.42693275 -1.0462813
-0.9386642 0.062328685 -1.3537574 0.2037091 0.5321301 1.0677646 -1.5132539 -0.42186418
-2.0871136 0.19162129 0.45642695 0.58428204 -0.21213013 0.095052786 -0.22137369 -0.72897106
-0.46641794 -1.4598811 0.52511865 0.33575737 0.15142138 0.34747648 -0.54683274 0.51926744
-0.41874784 -0.07910906 -1.8597533 -1.6751833 0.09053548 0.41204354 0.26150745 -0.12227108
1.0220982 -0.3227923 -1.0455557 -0.80244076 -0.98699254 -1.3288932 0.1195061 0.8080736
-1.6840659 0.2412219 0.26431522 -1.6388605 -0.8342422 -1.6299295 0.5312349 0.53040135
0.5146307 -1.4853488 -1.6818185 -1.3961 -0.01473106 0.59496343 -0.20043115 0.81170124
0.21335511 0.71341807 -1.6556051 -0.8734456 -1.1706887 -1.1880791 0.036137346 -1.4846253
-0.30218345 -0.40467387 0.71687293 0.8225809 -0.5843331 -1.8110533 -0.19274317 0.48756206
0.30583024 -0.82350755 -1.4666357 -0.7940768 1.3774042 -1.5064107 -0.5392307 -0.73534393

l3.bias f4 [11]
00000000: 3c99 03be 5e9b 8ebe ddd4 d83d 57ae 69bd
00000010: 0782 f9bc 070c e23d 6829 15be fd17 b0be
00000020: 669e ee3e 3394 25bf eec9 193f
-0.12851423 -0.2785291 0.105874754 -0.05705103 -0.03045751 0.1103745 -0.14566576 -0.34393302
0.46605223 -0.6467926 0.60073745
