data.pth (torch, 5143 bytes, 6 tensors)

l1.weight f4 [8, 57]
000000 9a 88 1f bf af 7a 8e be 3a c9 d2 3e a9 7a 1c 3f
       -0.6231781 -0.27827975 0.4116915 0.61124665
000010 ab ef 1c 3e 0d ca 12 3f b3 74 87 3f d2 5b 8b 3e
       0.15325801 0.57339555 1.0582489 0.2721849
000020 dd ba 06 3f c0 b0 63 3d 8a d8 cc 3e a0 ac 9d 3e
       0.5262888 0.055588484 0.40008956 0.30795765
000030 7f 65 1e be 98 d6 89 be 2b 77 9e be 4d 0a c0 bd
       -0.15468405 -0.26921535 -0.30950293 -0.09376965
000040 94 c4 62 bd b2 23 c6 3e 1f 72 8d 3f 37 e7 9e be
       -0.055363253 0.38699108 1.1050452 -0.31035778
000050 1e 53 c5 3e 72 a3 2a bd 82 16 c9 3e a3 8a cf 3e
       0.38539976 -0.04165978 0.39274985 0.4053546
000060 a8 5a 0a 3e 57 0d 2d 3f 46 b5 f9 bd 58 6f b5 3e
       0.13511145 0.6759848 -0.12192778 0.3543651
000070 db f7 3d 3f b7 17 c0 be f0 0f a6 3c 80 c1 b9 3e
       0.7420632 -0.37518093 0.020271271 0.3628044
000080 05 7b 28 3d c2 a3 55 bd f6 83 15 3d 73 72 1d 3e
       0.041132946 -0.052158125 0.0365028 0.1537569
000090 f5 57 a5 3d be 8c 22 be 7e 21 48 3e 8c 09 a0 3e
       0.08073417 -0.15874001 0.19544026 0.31257284
0000a0 3a 34 23 3f 9e b3 92 3b 91 e1 e0 bd 24 72 3d bd
       0.63751566 0.0044769784 -0.109805234 -0.04625143
0000b0 86 15 84 3b 56 16 43 bf f6 b4 11 be 78 40 00 3e
       0.004030886 -0.76205957 -0.14229187 0.12524593
0000c0 d7 da b4 3e 45 80 29 bf 80 ed 35 be 7a ab 81 3d
       0.35323212 -0.6621135 -0.1776638 0.06331535
0000d0 74 66 5d 3d fd 6a 9b be 40 0d 51 bd 6e ae b9 3e
       0.054052785 -0.30355063 -0.051038027 0.36265892
0000e0 9b 33 54 3e 2e de 2e 3f cb 22 72 3e ba 36 ab bb
       0.20722811 0.6830777 0.23646085 -0.00522503
0000f0 fe 8e 22 be 15 0b c0 3e 1f 74 28 3e 04 ea 1a be
       -0.1587486 0.37508455 0.16450547 -0.15128332
000100 ed 64 ab bc 77 47 f3 3d 80 c9 87 be ec 85 12 3e
       -0.020922149 0.11878865 -0.2652092 0.143089
000110 48 4c c6 3e 59 d0 5f be e0 58 93 be 25 d1 8c be
       0.38730073 -0.21856822 -0.28778744 -0.27503315
000120 bc 80 56 be 36 ae 98 bd 8c 60 d9 3e 9d a3 e0 3c
       -0.20947546 -0.07455103 0.42456472 0.027421767
000130 b5 c9 55 3c 45 6b 2d 3f ce a8 06 3f 2b 87 42 3f
       0.013048579 0.67741805 0.52601326 0.759875
000140 3b 86 0f 3f c2 98 e0 3e 57 39 f3 bd 7f fc be be
       0.56064194 0.43866545 -0.11876171 -0.37302014
000150 24 c1 67 3e 87 fd 9d bd ca 4a 94 be 12 bc 6d 3e
       0.22632271 -0.07714372 -0.2896331 0.23216274
000160 b2 9b 32 be 3a 6a 0e be 5c b0 03 be 24 35 5a be
       -0.17442206 -0.1390771 -0.12860245 -0.21309334
000170 19 e6 24 3d d4 3e ba be de 1c 9b bd ff 9d 3a be
       0.0402585 -0.3637606 -0.07573865 -0.18224333
000180 18 ff 2d 3c 8b 44 77 bd 45 df 3c be 47 44 6a be
       0.010619901 -0.060368102 -0.18444546 -0.22877608
000190 ac 54 c0 bd 3b 04 a8 be 85 76 8b 3f c5 2f e2 3e
       -0.0939115 -0.32815728 1.0895544 0.4417707
0001a0 04 97 d9 bd 43 29 c2 3e 4a d8 2f 3f ca ce c0 bd
       -0.10624507 0.37922105 0.68689406 -0.09414442
0001b0 5f de 9f bd 02 58 04 be b7 3b 2b be 48 4b 18 bc
       -0.07806086 -0.12924197 -0.16721998 -0.009295292
0001c0 72 da b3 bd 41 de 9d 3e ec 00 b6 3e f4 59 88 3b
       -0.087818995 0.3083363 0.35547578 0.004161114
0001d0 5b 21 29 3e 95 8d f4 bd 8e 36 f9 3e aa 69 c2 3e
       0.1651663 -0.11941067 0.48674434 0.3797124
0001e0 49 38 96 3f 41 7d 80 3e ef 79 a4 3e 11 92 39 be
       1.1735927 0.2509556 0.32124278 -0.18122126
0001f0 13 0b 07 3e 36 34 d6 3e 8d 26 aa be 07 4c dc be
       0.13187818 0.4183671 -0.33232537 -0.43026754
000200 61 b2 a8 be 0b 8c 9c bd 00 e1 85 bc 11 76 1e 3f
       -0.32948592 -0.076438986 -0.01634264 0.61898905
000210 61 5c 6f 3f 0b 30 8a be de b6 13 3f 3d bb d2 3e
       0.93500334 -0.2698978 0.5770091 0.41158476
000220 26 81 34 3f 9b 33 0a 3f 1c 64 95 3e 56 90 37 be
       0.70509565 0.53984994 0.2917794 -0.17926154
000230 b9 a4 29 be 62 73 41 3e 1e 08 fb 3e cd e5 df be
       -0.16566743 0.18891671 0.4902963 -0.43730012
000240 e2 6d 79 3e cb 78 57 3e 87 09 c6 be 9d 46 f6 bd
       0.24358323 0.21042173 -0.38679144 -0.12025187
000250 ee 67 a5 be 64 e5 ff 3b a7 17 28 be 79 2f e6 bd
       -0.32305855 0.007809328 -0.16415273 -0.112395234
000260 ad 37 35 3e e6 3d a0 3e 46 b2 31 3f a4 97 a7 be
       0.1769702 0.31297225 0.6941265 -0.3273288
000270 07 ee 95 be 85 b3 8b 3d 0c fa 16 be 7f 62 10 3f
       -0.29283163 0.0682135 -0.14743823 0.56400293
000280 26 9f 8e 3e a2 d0 08 3d 89 90 e7 3e f3 23 22 be
       0.27855796 0.033402093 0.4522746 -0.15834026
000290 51 e6 b4 bd d3 d4 18 be b8 5f 32 bd 19 44 b0 be
       -0.08832992 -0.14924936 -0.043548316 -0.34426954
0002a0 2e a3 de bd e1 e6 f9 3d bf ff 61 3e 9f 14 6c bd
       -0.10870968 0.1220224 0.22070216 -0.057636853
0002b0 32 7d 4b be 0c 19 e3 3e 2e c7 b0 bd ba 9c 24 3c
       -0.19871977 0.44355047 -0.086317405 0.010047132
0002c0 cf d3 b6 3e 0e 10 cb 3e 6a 39 81 3e a8 fc bb 3e
       0.35708472 0.39660686 0.25239116 0.367162
0002d0 4d 3e e3 3e c1 0b 13 3f d4 9a 7a bd 81 bc f8 bd
       0.4438347 0.5743981 -0.06118281 -0.12145329
0002e0 3d 89 6f 3e 6e 29 1f 3c 72 42 00 be 7d 95 06 bd
       0.23392196 0.009714467 -0.12525347 -0.032857407
0002f0 1d 1a ca bd 71 b0 cd 3e 94 c7 85 be 49 24 08 be
       -0.09868262 0.40173677 -0.2612883 -0.13295092
000300 2c c6 ba bd 61 b4 b0 bd a4 73 99 bc 99 e1 d8 be
       -0.091198295 -0.086281545 -0.0187319 -0.42359617
000310 e8 7a 53 be b4 db 6d 3c e3 ec 9d 3d 6f 00 97 3e
       -0.20652354 0.014517713 0.07711198 0.29492518
000320 f5 6f d2 bb d8 7a 48 bc 04 a3 23 3f fa c5 7a be
       -0.0064220377 -0.0122363195 0.6392062 -0.24489585
000330 e9 9e 24 be 7c d5 31 3d 50 bf 86 3d 6f ea ff 3e
       -0.16076244 0.043416485 0.06579459 0.49983546
000340 3a 5e e9 bc 68 a8 ec 3e a0 40 cf 3e f1 63 18 3e
       -0.028487314 0.46222234 0.40478992 0.14881875
000350 11 00 57 be 7d 0a 35 bd eb a3 00 be ec a5 4c 3e
       -0.20996119 -0.044199456 -0.1256253 0.19985169
000360 a6 d2 e8 be 29 59 ef bd 5d 64 be bd 57 32 3e 3d
       -0.45473212 -0.11686928 -0.092964865 0.046434727
000370 3c 3e 59 bd f5 23 b6 3d 08 f9 90 bd d5 19 71 bd
       -0.053037867 0.08893577 -0.07078749 -0.058862526
000380 ed 5f 6f be 35 b4 67 3d 64 e3 de 3e 9c c6 50 3e
       -0.23376437 0.056568343 0.4353286 0.20388263
000390 9b b4 c3 3e dd 71 c3 3e 7a 86 a3 be 59 16 69 3f
       0.3822373 0.38172808 -0.31938535 0.91049725
0003a0 d6 18 e2 be 6d 8e 00 bf 92 8b 64 3f 2d b8 c0 be
       -0.44159573 -0.50217324 0.8927547 -0.37640515
0003b0 3c 51 e0 be 71 1e ea bc 98 1a 64 be 95 fa c6 be
       -0.43811977 -0.028578969 -0.2227577 -0.38863054
0003c0 ee b4 8b 3e 76 7b 03 3f a7 e2 1e 3f e7 38 48 3f
       0.27286476 0.5136026 0.62064594 0.78211826
0003d0 b0 79 d8 bd b0 82 32 be 3a 34 5a 3f 1a c8 f1 3e
       -0.10570085 -0.17432666 0.8523594 0.47222978
0003e0 a6 22 10 bf 37 41 a9 3e 16 11 10 bf b6 1a 10 bf
       -0.5630287 0.33057567 -0.5627607 -0.5629076
0003f0 40 9f 6a be b6 9c 49 3f 65 3d 34 3f 93 73 21 3f
       -0.22912312 0.78754747 0.7040618 0.6306698

l1.bias f4 [8]
000000 c5 92 1a 3f f5 db 25 3f cd cb 5c 3f 32 d1 82 3e
       0.603802 0.6478875 0.86248475 0.25550228
000010 b1 fd 0f 3f 17 7d 02 3f dd a9 36 3f 06 c1 2c 3f
       0.5624648 0.5097212 0.7135294 0.6748203

l2.weight f4 [8, 8]
000000 b8 45 94 be 7d 37 8e 3e 34 13 b1 bd 12 94 48 be
       -0.2895944 0.2777671 -0.08646241 -0.19587734
000010 a8 96 35 bd fc eb ae bd 1f 61 9c be eb 76 7e be
       -0.04433313 -0.08541104 -0.30542848 -0.24850051
000020 0c a0 33 bf 4e 3a 96 3f ac 9c 12 3f 80 00 89 bf
       -0.7016609 1.1736543 0.5727031 -1.0703278
000030 95 f4 a0 be 53 9f 4a 3f 89 87 81 3f 9e b5 78 3f
       -0.314366 0.7914936 1.0119487 0.97152126
000040 de 9e 4a 3f 54 9f 45 be 7f ab ec 3e 7c 31 31 be
       0.7914866 -0.1929906 0.4622459 -0.17304033
000050 29 fc 84 3f ea c3 ac bf 03 ab c3 3e 90 7f 24 be
       1.0389453 -1.3497288 0.3821641 -0.16064286
000060 8b 07 68 bf cd eb 85 3f 40 65 5e 3f d9 08 09 bf
       -0.9063651 1.0462586 0.86873245 -0.53529125
000070 4f 64 4e be 6a 7a 1d bd 06 18 7f 3f ac 1f 91 3f
       -0.20155452 -0.03844682 0.9964603 1.133779
000080 21 25 d9 3c a7 e2 fd 3d ef d7 2f be 47 cd fe be
       0.026506962 0.12396746 -0.17172216 -0.4976599
000090 e4 27 b3 3f e3 b6 17 bf d2 60 9e 3f 57 37 51 be
       1.3996549 -0.5926344 1.2373297 -0.20431267
0000a0 83 49 8f bf b7 73 3a 3f ce 80 a4 be 3c f9 ed be
       -1.1194309 0.72832817 -0.3212952 -0.46479213
0000b0 c0 f4 2b 3f 62 12 50 bf 43 8d 9b 3f 8d 12 d5 3e
       0.67170334 -0.8127805 1.2152485 0.41615716
0000c0 b1 f0 a9 bd 40 be 77 be 56 df 96 be 6f 4d 35 3e
       -0.08297861 -0.24193668 -0.29467267 0.1770532
0000d0 3f 65 38 be 61 2c 26 3e a0 b4 82 be 8e b3 22 be
       -0.18007372 0.16227867 -0.2552843 -0.15888807
0000e0 2e 5c fe 3f 17 10 b8 3f 99 e9 c5 3f 67 f4 b6 3e
       1.9871881 1.437991 1.5461913 0.3573334
0000f0 21 78 3b bf 4e dd 2a 3e c6 a4 89 3e c1 ca a3 3f
       -0.7323018 0.16685984 0.26883525 1.279625

l2.bias f4 [8]
000000 90 4a 4b bd 2c 0d 8b 3e 33 b8 8c 3e 13 dd 87 3e
       -0.049631655 0.27158487 0.27484283 0.26535854
000010 b8 c7 45 3f ec 00 9b 3d b5 90 b6 be 94 45 fe 3e
       0.7725787 0.07568535 -0.35657278 0.4966246

l3.weight f4 [7, 8]
000000 a4 e7 fa 3d 8b 05 c2 3c 9e 8c 93 bf 68 a4 53 bf
       0.12251213 0.023684284 -1.1527288 -0.8267274
000010 cb 47 17 3f ce ae 63 bf ae 07 eb bd d9 86 8b bf
       0.5909392 -0.88938606 -0.11476074 -1.0900527
000020 4b 7e 46 be bd f3 ad bf 70 49 f9 3e d8 2a 90 bf
       -0.19384114 -1.3590008 0.4868884 -1.1263075
000030 ce 09 20 3f f6 f6 b9 3e ba 86 28 3e 81 50 28 bf
       0.6251496 0.3632123 0.16457644 -0.6574784
000040 41 3d 9e 3e 6f 00 08 bf 3c 5c ad 3e 3f 50 a8 3c
       0.30906108 -0.5312566 0.33859432 0.020546077
000050 e1 37 d0 bd f4 a2 94 bf 18 de b0 3d ba 3d 35 3e
       -0.10166908 -1.1612229 0.08636111 0.17699328
000060 aa 66 47 3e d4 8a 3e 3f a1 06 df bf 82 cc df 3e
       0.19472757 0.74430585 -1.7423898 0.43710715
000070 5b 4f 88 bf 9e 3a ac bf 81 dc 35 bc c9 ff 83 3e
       -1.0649217 -1.3455389 -0.0110999355 0.25781086
000080 e6 d3 84 be 4a 6c 57 be e9 13 17 be 0b 35 46 3e
       -0.25942916 -0.21037403 -0.14753689 0.19356172
000090 8e 25 08 3f 0a 67 13 3f 82 b8 5a 3e 69 db b1 bf
       0.53182304 0.575791 0.21359447 -1.3895084
0000a0 a9 22 9a 3e 28 e4 82 bf 43 2e ea bf 8f 5b 9c bf
       0.3010457 -1.0225878 -1.8295368 -1.2215441
0000b0 7b 38 a1 bf 0d d1 38 bf 71 ef 87 be 86 73 53 3f
       -1.2595361 -0.72193986 -0.26549867 0.8259815
0000c0 d9 19 21 be 9d bc d7 3e 53 42 56 bf 15 9e ec 3e
       -0.15732516 0.42136088 -0.8369495 0.46214357
0000d0 7b 00 59 be ff 4c a1 3e 36 24 9e 3c c8 55 ac be
       -0.2119159 0.31504056 0.019304376 -0.33659196

l3.bias f4 [7]
000000 83 0f ec 3f f2 19 34 bf ad 46 7b bf f9 08 7c bf
       1.8442234 -0.7035209 -0.9815472 -0.9845119
000010 d6 90 26 bf 70 b4 8a 3f cc b3 9b bf
       -0.6506475 1.0836315 -1.2164245
